…
model.add(Conv2D(128, kernel_size=(3, 3)))
model.add(Activation("sigmoid"))
model.add(MaxPooling2D(pool_size=(2, 2)))

model.add(Flatten())
model.add(Dense(128, activation="relu", kernel_regularizer=keras.regularizers.l2(0.001)))
model.add(Dense(64, kernel_regularizer=keras.regularizers.l2(0.001)))
model.add(Dense(NUM_OF_CLASSES, activation="softmax"))


### RESULT:

Model: "sequential"
_________________________________________________________________
Layer (type)                 Output Shape              Param #   
=================================================================
conv2d (Conv2D)              (None, 62, 62, 64)        1792      
_________________________________________________________________
activation (Activation)      (None, 62, 62, 64)        0         
_________________________________________________________________
batch_normalization (BatchNo (None, 62, 62, 64)        256       
_________________________________________________________________
max_pooling2d (MaxPooling2D) (None, 31, 31, 64)        0         
_________________________________________________________________
conv2d_1 (Conv2D)            (None, 29, 29, 64)        36928     
_________________________________________________________________
activation_1 (Activation)    (None, 29, 29, 64)        0         
_________________________________________________________________
max_pooling2d_1 (MaxPooling2 (None, 14, 14, 64)        0         
_________________________________________________________________
conv2d_2 (Conv2D)            (None, 12, 12, 128)       73856     
_________________________________________________________________
activation_2 (Activation)    (None, 12, 12, 128)       0         
_________________________________________________________________
batch_normalization_1 (Batch (None, 12, 12, 128)       512       
_________________________________________________________________
max_pooling2d_2 (MaxPooling2 (None, 6, 6, 128)         0         
_________________________________________________________________
conv2d_3 (Conv2D)            (None, 4, 4, 128)         147584    
_________________________________________________________________
activation_3 (Activation)    (None, 4, 4, 128)         0         
_________________________________________________________________
max_pooling2d_3 (MaxPooling2 (None, 2, 2, 128)         0         
_________________________________________________________________
flatten (Flatten)            (None, 512)               0         
_________________________________________________________________
dense (Dense)                (None, 128)               65664     
_________________________________________________________________
dense_1 (Dense)              (None, 64)                8256      
_________________________________________________________________
dense_2 (Dense)              (None, 3)                 195       
=================================================================
Total params: 335,043
Trainable params: 334,659
Non-trainable params: 384
_________________________________________________________________

Epoch 1/20
116/116 [==============================] - 97s 838ms/step - loss: 0.9750 - accuracy: 0.6656 - val_loss: 1.3689 - val_accuracy: 0.2544
Epoch 2/20
116/116 [==============================] - 94s 809ms/step - loss: 0.7959 - accuracy: 0.7365 - val_loss: 1.8881 - val_accuracy: 0.4792
…
