…
model.add(MaxPooling2D(pool_size=(2, 2)))

model.add(Flatten())
model.add(Dense(128, activation="relu", kernel_regularizer=keras.regularizers.l2(0.001)))
model.add(Activation("relu"))
model.add(Dropout(0.5))
model.add(Dense(1, kernel_regularizer=keras.regularizers.l2(0.001)))  # 3 instead of 1
model.add(Dense(NUM_OF_CLASSES, activation="sigmoid"))


### RESULT:

Model: "sequential"
_________________________________________________________________
Layer (type)                 Output Shape              Param #   
=================================================================
conv2d (Conv2D)              (None, 62, 62, 64)        1792      
_________________________________________________________________
activation (Activation)      (None, 62, 62, 64)        0         
_________________________________________________________________
max_pooling2d (MaxPooling2D) (None, 31, 31, 64)        0         
_________________________________________________________________
conv2d_1 (Conv2D)            (None, 29, 29, 64)        36928     
_________________________________________________________________
activation_1 (Activation)    (None, 29, 29, 64)        0         
_________________________________________________________________
max_pooling2d_1 (MaxPooling2 (None, 14, 14, 64)        0         
_________________________________________________________________
conv2d_2 (Conv2D)            (None, 12, 12, 128)       73856     
_________________________________________________________________
activation_2 (Activation)    (None, 12, 12, 128)       0         
_________________________________________________________________
max_pooling2d_2 (MaxPooling2 (None, 6, 6, 128)         0         
_________________________________________________________________
flatten (Flatten)            (None, 4608)              0         
_________________________________________________________________
dense (Dense)                (None, 128)               589952    
_________________________________________________________________
activation_3 (Activation)    (None, 128)               0         
_________________________________________________________________
dropout (Dropout)            (None, 128)               0         
_________________________________________________________________
dense_1 (Dense)              (None, 1)                 129       
_________________________________________________________________
dense_2 (Dense)              (None, 3)                 6         
=================================================================
Total params: 702,663
Trainable params: 702,663
Non-trainable params: 0


Epoch 1/50
116/116 [==============================] - 80s 691ms/step - loss: 1.1374 - accuracy: 0.4886 - val_loss: 1.0403 - val_accuracy: 0.6096
Epoch 2/50
116/116 [==============================] - 77s 666ms/step - loss: 0.9260 - accuracy: 0.6234 - val_loss: 0.8695 - val_accuracy: 0.6341
…
