SECOND TRIAL
---------------------------------------

### RESULT:

Model: "sequential"
_________________________________________________________________
Layer (type)                 Output Shape              Param #   
=================================================================
conv2d (Conv2D)              (None, 62, 62, 32)        896       
_________________________________________________________________
activation (Activation)      (None, 62, 62, 32)        0         
_________________________________________________________________
max_pooling2d (MaxPooling2D) (None, 31, 31, 32)        0         
_________________________________________________________________
conv2d_1 (Conv2D)            (None, 29, 29, 64)        18496     
_________________________________________________________________
activation_1 (Activation)    (None, 29, 29, 64)        0         
_________________________________________________________________
max_pooling2d_1 (MaxPooling2 (None, 14, 14, 64)        0         
_________________________________________________________________
conv2d_2 (Conv2D)            (None, 12, 12, 64)        36928     
_________________________________________________________________
activation_2 (Activation)    (None, 12, 12, 64)        0         
_________________________________________________________________
max_pooling2d_2 (MaxPooling2 (None, 6, 6, 64)          0         
_________________________________________________________________
conv2d_3 (Conv2D)            (None, 4, 4, 128)         73856     
_________________________________________________________________
activation_3 (Activation)    (None, 4, 4, 128)         0         
_________________________________________________________________
max_pooling2d_3 (MaxPooling2 (None, 2, 2, 128)         0         
_________________________________________________________________
flatten (Flatten)            (None, 512)               0         
_________________________________________________________________
dense (Dense)                (None, 128)               65664     
_________________________________________________________________
activation_4 (Activation)    (None, 128)               0         
_________________________________________________________________
dropout (Dropout)            (None, 128)               0         
_________________________________________________________________
dense_1 (Dense)              (None, 3)                 387       
_________________________________________________________________
dense_2 (Dense)              (None, 3)                 12        
=================================================================
Total params: 196,239
Trainable params: 196,239
Non-trainable params: 0


Epoch 1/50
116/116 [==============================] - 72s 619ms/step - loss: 1.1278 - accuracy: 0.4889 - val_loss: 1.0874 - val_accuracy: 0.5164
Epoch 2/50
116/116 [==============================] - 73s 633ms/step - loss: 0.9188 - accuracy: 0.5898 - val_loss: 1.0446 - val_accuracy: 0.5372
…
