…
model.add(MaxPooling2D(pool_size=(2, 2)))
model.add(Dropout(0.4))

model.add(Flatten())
model.add(Dense(128, activation="relu", kernel_regularizer=keras.regularizers.l2(0.001)))
model.add(Activation("relu"))
model.add(Dropout(0.5))
model.add(Dense(3, kernel_regularizer=keras.regularizers.l2(0.001)))  # 3 instead of 1
model.add(Dense(NUM_OF_CLASSES, activation="sigmoid"))


### RESULT:

Model: "sequential"
_________________________________________________________________
Layer (type)                 Output Shape              Param #   
=================================================================
conv2d (Conv2D)              (None, 62, 62, 64)        1792      
_________________________________________________________________
activation (Activation)      (None, 62, 62, 64)        0         
_________________________________________________________________
max_pooling2d (MaxPooling2D) (None, 31, 31, 64)        0         
_________________________________________________________________
conv2d_1 (Conv2D)            (None, 29, 29, 64)        36928     
_________________________________________________________________
activation_1 (Activation)    (None, 29, 29, 64)        0         
_________________________________________________________________
max_pooling2d_1 (MaxPooling2 (None, 14, 14, 64)        0         
_________________________________________________________________
conv2d_2 (Conv2D)            (None, 12, 12, 128)       73856     
_________________________________________________________________
activation_2 (Activation)    (None, 12, 12, 128)       0         
_________________________________________________________________
max_pooling2d_2 (MaxPooling2 (None, 6, 6, 128)         0         
_________________________________________________________________
dropout (Dropout)            (None, 6, 6, 128)         0         
_________________________________________________________________
conv2d_3 (Conv2D)            (None, 4, 4, 128)         147584    
_________________________________________________________________
activation_3 (Activation)    (None, 4, 4, 128)         0         
_________________________________________________________________
max_pooling2d_3 (MaxPooling2 (None, 2, 2, 128)         0         
_________________________________________________________________
dropout_1 (Dropout)          (None, 2, 2, 128)         0         
_________________________________________________________________
flatten (Flatten)            (None, 512)               0         
_________________________________________________________________
dense (Dense)                (None, 128)               65664     
_________________________________________________________________
activation_4 (Activation)    (None, 128)               0         
_________________________________________________________________
dropout_2 (Dropout)          (None, 128)               0         
_________________________________________________________________
dense_1 (Dense)              (None, 3)                 387       
_________________________________________________________________
dense_2 (Dense)              (None, 3)                 12        
=================================================================
Total params: 326,223
Trainable params: 326,223
Non-trainable params: 0

Epoch 1/50
116/116 [==============================] - 89s 769ms/step - loss: 1.2149 - accuracy: 0.4789 - val_loss: 1.1660 - val_accuracy: 0.4792
Epoch 2/50
116/116 [==============================] - 91s 782ms/step - loss: 1.1509 - accuracy: 0.4778 - val_loss: 1.1111 - val_accuracy: 0.5800
…
