…
model.add(Dropout(0.5))
model.add(BatchNormalization())
model.add(MaxPooling2D(pool_size=(2, 2)))

model.add(Flatten())
model.add(Dense(128, activation="relu", kernel_regularizer=keras.regularizers.l2(0.001)))
model.add(Dropout(0.5))
model.add(Dense(64, kernel_regularizer=keras.regularizers.l2(0.001)))
model.add(Dense(NUM_OF_CLASSES, activation="softmax"))


### RESULT:

Model: "sequential"
_________________________________________________________________
Layer (type)                 Output Shape              Param #   
=================================================================
conv2d (Conv2D)              (None, 62, 62, 64)        1792      
_________________________________________________________________
activation (Activation)      (None, 62, 62, 64)        0         
_________________________________________________________________
dropout (Dropout)            (None, 62, 62, 64)        0         
_________________________________________________________________
batch_normalization (BatchNo (None, 62, 62, 64)        256       
_________________________________________________________________
max_pooling2d (MaxPooling2D) (None, 31, 31, 64)        0         
_________________________________________________________________
conv2d_1 (Conv2D)            (None, 29, 29, 64)        36928     
_________________________________________________________________
activation_1 (Activation)    (None, 29, 29, 64)        0         
_________________________________________________________________
dropout_1 (Dropout)          (None, 29, 29, 64)        0         
_________________________________________________________________
batch_normalization_1 (Batch (None, 29, 29, 64)        256       
_________________________________________________________________
max_pooling2d_1 (MaxPooling2 (None, 14, 14, 64)        0         
_________________________________________________________________
conv2d_2 (Conv2D)            (None, 12, 12, 128)       73856     
_________________________________________________________________
activation_2 (Activation)    (None, 12, 12, 128)       0         
_________________________________________________________________
dropout_2 (Dropout)          (None, 12, 12, 128)       0         
_________________________________________________________________
batch_normalization_2 (Batch (None, 12, 12, 128)       512       
_________________________________________________________________
max_pooling2d_2 (MaxPooling2 (None, 6, 6, 128)         0         
_________________________________________________________________
flatten (Flatten)            (None, 4608)              0         
_________________________________________________________________
dense (Dense)                (None, 128)               589952    
_________________________________________________________________
dropout_3 (Dropout)          (None, 128)               0         
_________________________________________________________________
dense_1 (Dense)              (None, 64)                8256      
_________________________________________________________________
dense_2 (Dense)              (None, 3)                 195       
=================================================================
Total params: 712,003
Trainable params: 711,491
Non-trainable params: 512

Epoch 1/10
116/116 [==============================] - 111s 955ms/step - loss: 1.5479 - accuracy: 0.5744 - val_loss: 3.1009 - val_accuracy: 0.4792
Epoch 2/10
116/116 [==============================] - 107s 926ms/step - loss: 1.0907 - accuracy: 0.6564 - val_loss: 4.5132 - val_accuracy: 0.4792
…
